…
    "cnn_model.add(Dense(128, activation='relu'))\n",
    "\n",
    "cnn_model.add(Dense(len(lb.classes_), activation='softmax'))"
   ]
  },
  {
   "cell_type": "code",
   "execution_count": 125,
   "metadata": {},
   "outputs": [
    {
     "name": "stdout",
     "output_type": "stream",
     "text": [
      "Model: \"sequential_7\"\n",
      "_________________________________________________________________\n",
      "Layer (type)                 Output Shape              Param #   \n",
      "=================================================================\n",
      "conv2d (Conv2D)              (None, 26, 26, 6)         60        \n",
      "_________________________________________________________________\n",
      "max_pooling2d (MaxPooling2D) (None, 13, 13, 6)         0         \n",
      "_________________________________________________________________\n",
      "conv2d_1 (Conv2D)            (None, 11, 11, 16)        880       \n",
      "_________________________________________________________________\n",
      "max_pooling2d_1 (MaxPooling2 (None, 5, 5, 16)          0         \n",
      "_________________________________________________________________\n",
      "flatten_6 (Flatten)          (None, 400)               0         \n",
      "_________________________________________________________________\n",
      "dense_15 (Dense)             (None, 128)               51328     \n",
      "_________________________________________________________________\n",
      "dense_16 (Dense)             (None, 10)                1290      \n",
      "=================================================================\n",
      "Total params: 53,558\n",
      "Trainable params: 53,558\n",
      "Non-trainable params: 0\n",
      "_________________________________________________________________\n"
     ]
    }
   ],
   "source": [
    "cnn_model.summary()"
   ]
  },
  {
   "cell_type": "code",
   "execution_count": 126,
   "metadata": {},
…
